…
      "outputs": [
        {
          "output_type": "stream",
          "name": "stdout",
          "text": [
            "Model: \"fashion_model\"\n",
            "_________________________________________________________________\n",
            " Layer (type)                Output Shape              Param #   \n",
            "=================================================================\n",
            " input_1 (InputLayer)        [(None, 28, 28, 1)]       0         \n",
            "                                                                 \n",
            " batch_normalization (BatchN  (None, 28, 28, 1)        4         \n",
            " ormalization)                                                   \n",
            "                                                                 \n",
            " conv2d (Conv2D)             (None, 28, 28, 64)        640       \n",
            "                                                                 \n",
            " max_pooling2d (MaxPooling2D  (None, 14, 14, 64)       0         \n",
            " )                                                               \n",
            "                                                                 \n",
            " dropout (Dropout)           (None, 14, 14, 64)        0         \n",
            "                                                                 \n",
            " conv2d_1 (Conv2D)           (None, 14, 14, 128)       73856     \n",
            "                                                                 \n",
            " max_pooling2d_1 (MaxPooling  (None, 7, 7, 128)        0         \n",
            " 2D)                                                             \n",
            "                                                                 \n",
            " dropout_1 (Dropout)         (None, 7, 7, 128)         0         \n",
            "                                                                 \n",
            " conv2d_2 (Conv2D)           (None, 7, 7, 256)         295168    \n",
            "                                                                 \n",
            " batch_normalization_1 (Batc  (None, 7, 7, 256)        1024      \n",
            " hNormalization)                                                 \n",
            "                                                                 \n",
            " max_pooling2d_2 (MaxPooling  (None, 3, 3, 256)        0         \n",
            " 2D)                                                             \n",
            "                                                                 \n",
            " dropout_2 (Dropout)         (None, 3, 3, 256)         0         \n",
            "                                                                 \n",
            " flatten (Flatten)           (None, 2304)              0         \n",
            "                                                                 \n",
            " dense (Dense)               (None, 256)               590080    \n",
            "                                                                 \n",
            " activation (Activation)     (None, 256)               0         \n",
            "                                                                 \n",
            " dropout_3 (Dropout)         (None, 256)               0         \n",
            "                                                                 \n",
            " dense_1 (Dense)             (None, 10)                2570      \n",
            "                                                                 \n",
            "=================================================================\n",
            "Total params: 963,342\n",
            "Trainable params: 962,828\n",
            "Non-trainable params: 514\n",
            "_________________________________________________________________\n"
          ]
        }
…
        {
          "output_type": "stream",
          "name": "stdout",
          "text": [
            "Model: \"fashion_model_underfit\"\n",
            "_________________________________________________________________\n",
            " Layer (type)                Output Shape              Param #   \n",
            "=================================================================\n",
            " input_2 (InputLayer)        [(None, 28, 28, 1)]       0         \n",
            "                                                                 \n",
            " conv2d_3 (Conv2D)           (None, 28, 28, 2)         452       \n",
            "                                                                 \n",
            " max_pooling2d_3 (MaxPooling  (None, 14, 14, 2)        0         \n",
            " 2D)                                                             \n",
            "                                                                 \n",
            " dropout_4 (Dropout)         (None, 14, 14, 2)         0         \n",
            "                                                                 \n",
            " flatten_1 (Flatten)         (None, 392)               0         \n",
            "                                                                 \n",
            " dense_2 (Dense)             (None, 4)                 1572      \n",
            "                                                                 \n",
            " dense_3 (Dense)             (None, 10)                50        \n",
            "                                                                 \n",
            "=================================================================\n",
            "Total params: 2,074\n",
            "Trainable params: 2,074\n",
            "Non-trainable params: 0\n",
            "_________________________________________________________________\n"
          ]
        }
…
        {
          "output_type": "stream",
          "name": "stdout",
          "text": [
            "Model: \"fashion_model_overfit\"\n",
            "_________________________________________________________________\n",
            " Layer (type)                Output Shape              Param #   \n",
            "=================================================================\n",
            " input_3 (InputLayer)        [(None, 28, 28, 1)]       0         \n",
            "                                                                 \n",
            " batch_normalization_2 (Batc  (None, 28, 28, 1)        4         \n",
            " hNormalization)                                                 \n",
            "                                                                 \n",
            " conv2d_4 (Conv2D)           (None, 28, 28, 64)        640       \n",
            "                                                                 \n",
            " max_pooling2d_4 (MaxPooling  (None, 14, 14, 64)       0         \n",
            " 2D)                                                             \n",
            "                                                                 \n",
            " conv2d_5 (Conv2D)           (None, 14, 14, 128)       73856     \n",
            "                                                                 \n",
            " batch_normalization_3 (Batc  (None, 14, 14, 128)      512       \n",
            " hNormalization)                                                 \n",
            "                                                                 \n",
            " max_pooling2d_5 (MaxPooling  (None, 7, 7, 128)        0         \n",
            " 2D)                                                             \n",
            "                                                                 \n",
            " conv2d_6 (Conv2D)           (None, 7, 7, 256)         295168    \n",
            "                                                                 \n",
            " batch_normalization_4 (Batc  (None, 7, 7, 256)        1024      \n",
            " hNormalization)                                                 \n",
            "                                                                 \n",
            " max_pooling2d_6 (MaxPooling  (None, 3, 3, 256)        0         \n",
            " 2D)                                                             \n",
            "                                                                 \n",
            " conv2d_7 (Conv2D)           (None, 3, 3, 512)         1180160   \n",
            "                                                                 \n",
            " batch_normalization_5 (Batc  (None, 3, 3, 512)        2048      \n",
            " hNormalization)                                                 \n",
            "                                                                 \n",
            " max_pooling2d_7 (MaxPooling  (None, 1, 1, 512)        0         \n",
            " 2D)                                                             \n",
            "                                                                 \n",
            " flatten_2 (Flatten)         (None, 512)               0         \n",
            "                                                                 \n",
            " dense_4 (Dense)             (None, 1024)              525312    \n",
            "                                                                 \n",
            " dense_5 (Dense)             (None, 10)                10250     \n",
            "                                                                 \n",
            "=================================================================\n",
            "Total params: 2,088,974\n",
            "Trainable params: 2,087,180\n",
            "Non-trainable params: 1,794\n",
            "_________________________________________________________________\n"
          ]
…
